frontend/media/mlp_model_65536.pth (torch, 2384 bytes, 4 tensors)

fc1.weight f4 [10, 5]
0	0x3f33fafa	0.70304835
1	0x3f43dc04	0.7650759
2	0xbf2feadb	-0.68717736
3	0x3f25f51a	0.6482712
4	0x3f8cf614	1.1012597
5	0x3f5324fb	0.824783
6	0x3f265ef7	0.64988655
7	0xbee9d489	-0.45669964
8	0x3f042141	0.5161324
9	0x3ef58288	0.4795115
10	0xbf1e9be2	-0.6195661
11	0xbc26bce8	-0.010176875
12	0x3e0994b7	0.13435636
13	0xbf6d6e08	-0.9274602
14	0xbf0f021b	-0.5586259
15	0x3e40f46a	0.18843237
16	0xbe63834c	-0.22218055
17	0xbd8af918	-0.06785792
18	0xbe734e2e	-0.23760292
19	0xbf3bb29c	-0.7331941
20	0xbf254fb0	-0.6457472
21	0x3e2dcfdc	0.16973823
22	0x3d99bc03	0.075065635
23	0xbed44331	-0.41457513
24	0xbe558de3	-0.20854907
25	0xbf7e640c	-0.9937141
26	0x3ee3b44b	0.4447349
27	0xbe7296e5	-0.23690374
28	0x3f39567d	0.72397596
29	0x3c4e1b5b	0.012579764
30	0xbd7e668f	-0.062109526
31	0xbf10047a	-0.5625683
32	0x3ebb558e	0.3658871
33	0xbf37300e	-0.715577
34	0xbea1d123	-0.3160487
35	0xbf201875	-0.6253732
36	0xbe1b2f15	-0.15154679
37	0x3ee02d10	0.4378438
38	0xbf607f22	-0.8769399
39	0xbe3630b1	-0.17792012
40	0x3ee06b4a	0.43831855
41	0xbd2dfbd5	-0.042476494
42	0xbea204c6	-0.31644267
43	0x3f251ab7	0.6449389
44	0x3e916fd2	0.28405625
45	0xbf6c7df5	-0.92379695
46	0x3f14feba	0.5820118
47	0xbf2b3858	-0.6688285
48	0x3ecdff20	0.40233707
49	0xbe88983f	-0.26678655

fc1.bias f4 [10]
0	0x3be6ca9a	0.007043195
1	0xbecf759c	-0.40519416
2	0x3dcf41c1	0.101199634
3	0x3f554ace	0.8331727
4	0x3f9631cf	1.173395
5	0x3f1d1f5b	0.6137597
6	0x3dee7d30	0.11644971
7	0x3e609c29	0.2193457
8	0x3f81dfc6	1.0146415
9	0x3ef8e098	0.4860885

fc2.weight f4 [3, 10]
0	0xbdac9024	-0.0842593
1	0xbf01f148	-0.5075879
2	0x3ef36d9a	0.47544557
3	0x3e1e5544	0.15462214
4	0x3e33c3a1	0.17555095
5	0xbf0c93b7	-0.54912895
6	0x3e7a0d9f	0.24419259
7	0x3f2c2508	0.67244005
8	0xbf06ac42	-0.52606595
9	0xbf28be99	-0.6591583
10	0xbe9b3f70	-0.30321836
11	0xbf890dbe	-1.0707319
12	0xbf3e0105	-0.74220306
13	0x3eee260b	0.465134
14	0x3f070287	0.5273823
15	0x3f717ef9	0.9433437
16	0xbf4dcad2	-0.80387604
17	0xbedbadaf	-0.42905948
18	0x3f299391	0.66240793
19	0x3f497861	0.7869931
20	0x3f4c006e	0.79688156
21	0x3f2faf82	0.6862718
22	0xbebbbe58	-0.36668658
23	0xbf1be7b5	-0.6090043
24	0xbf33c998	-0.7022948
25	0xbf26f1ae	-0.65212524
26	0xbefaca8b	-0.48982653
27	0xbe219097	-0.15777813
28	0x3f0cac58	0.54950476
29	0xbf7cc992	-0.9874507

fc2.bias f4 [3]
0	0xbe636017	-0.22204624
1	0x3ea049b5	0.31306234
2	0xbeb4e53c	-0.35331142
